weight.npy (npy, 584 bytes, 1 tensors)

array f8 [63]
00000000: 0ef6 f378 480c db3f 12f6 f378 480c db3f
00000010: f1f5 f378 480c db3f faf5 f378 480c db3f
00000020: 24f6 f378 480c db3f 4bf6 f378 480c db3f
00000030: 22f6 f378 480c db3f 45f6 f378 480c db3f
00000040: 2cf6 f378 480c db3f 15f6 f378 480c dbbf
00000050: 15f6 f378 480c dbbf 2bf6 f378 480c dbbf
00000060: 2af6 f378 480c dbbf 22f6 f378 480c dbbf
00000070: 22f6 f378 480c dbbf e9f5 f378 480c dbbf
00000080: e9f5 f378 480c dbbf 2bf6 f378 480c dbbf
00000090: 26f6 f378 480c db3f f3f5 f378 480c db3f
000000a0: f3f5 f378 480c db3f f3f5 f378 480c db3f
000000b0: f3f5 f378 480c db3f 08f6 f378 480c db3f
000000c0: 26f6 f378 480c db3f 26f6 f378 480c db3f
000000d0: 26f6 f378 480c db3f fef5 f378 480c db3f
000000e0: 12f6 f378 480c db3f 12f6 f378 480c dbbf
000000f0: 40f6 f378 480c db3f d9f5 f378 480c dbbf
00000100: 2bf6 f378 480c db3f 39f6 f378 480c db3f
00000110: 29f6 f378 480c db3f 2ef6 f378 480c db3f
00000120: 6cf6 f378 480c db3f 06f6 f378 480c db3f
00000130: 28f6 f378 480c db3f eef5 f378 480c db3f
00000140: 06f6 f378 480c db3f 2bf6 f378 480c db3f
00000150: 32f6 f378 480c db3f f2f5 f378 480c db3f
00000160: 4df6 f378 480c db3f 1df6 f378 480c dbbf
00000170: 1df6 f378 480c dbbf 1df6 f378 480c dbbf
00000180: 1df6 f378 480c dbbf 1df6 f378 480c dbbf
00000190: 02f6 f378 480c db3f 1df6 f378 480c dbbf
000001a0: 1df6 f378 480c dbbf 1df6 f378 480c dbbf
000001b0: 1af6 f378 480c dbbf 1af6 f378 480c dbbf
000001c0: 1af6 f378 480c dbbf 1af6 f378 480c dbbf
000001d0: 1af6 f378 480c dbbf 1af6 f378 480c dbbf
000001e0: 1af6 f378 480c dbbf 1af6 f378 480c dbbf
000001f0: 1af6 f378 480c dbbf
0.42262470065892976 0.42262470065893 0.42262470065892815 0.42262470065892865 0.422624700658931 0.42262470065893315 0.4226247006589309 0.4226247006589328
0.42262470065893143 -0.42262470065893015 -0.42262470065893015 -0.4226247006589314 -0.4226247006589313 -0.4226247006589309 -0.4226247006589309 -0.4226247006589277
-0.4226247006589277 -0.4226247006589314 0.4226247006589311 0.42262470065892827 0.42262470065892827 0.42262470065892827 0.42262470065892827 0.42262470065892943
0.4226247006589311 0.4226247006589311 0.4226247006589311 0.4226247006589289 0.42262470065893 -0.42262470065893 0.42262470065893254 -0.4226247006589268
0.4226247006589314 0.42262470065893215 0.42262470065893126 0.42262470065893154 0.422624700658935 0.4226247006589293 0.4226247006589312 0.422624700658928
0.4226247006589293 0.4226247006589314 0.42262470065893176 0.4226247006589282 0.42262470065893326 -0.4226247006589306 -0.4226247006589306 -0.4226247006589306
-0.4226247006589306 -0.4226247006589306 0.4226247006589291 -0.4226247006589306 -0.4226247006589306 -0.4226247006589306 -0.42262470065893043 -0.42262470065893043
-0.42262470065893043 -0.42262470065893043 -0.42262470065893043 -0.42262470065893043 -0.42262470065893043 -0.42262470065893043 -0.42262470065893043
